model/model_4.tflite (tflite, 11392 bytes, 19 tensors)

unknown_1 f4 [6]
00000000: ce7a d03d 82e1 583c 415a aebc 8121 b63d
00000010: b4b2 8bbd 88fa 7d3c
0.10179673 0.013237359 -0.02128327 0.08893109 -0.06821194 0.015501626

unknown_15 f4 [6]
00000000: c258 41bd e47e 19bd f3c0 aa3d 19d5 0a3e
00000010: 2451 a4bc cbf2 313d
-0.047203787 -0.037474528 0.083375834 0.13557853 -0.020058222 0.043444436

unknown_21 f4 [6]
00000000: 38d3 7ebd 9658 a63e f653 993d 824f 503e
00000010: b42b 01bd 7fce 1bbf
-0.062213153 0.3248946 0.074867174 0.2034283 -0.03153582 -0.60861963

unknown_8 f4 [6]
00000000: 2dcb 163d d0cf c63d 960a 88bd 79a5 163d
00000010: fe80 343e ae24 bfbd
0.036814857 0.09707606 -0.06642644 0.0367789 0.17627332 -0.09333168

sequential/batch_normalization_1/FusedBatchNormV3;StatefulPartitionedCall/sequential/batch_normalization_1/FusedBatchNormV3 f4 [6]
00000000: ddb5 74bf 1728 8abf 135a 14bf 5945 41bf
00000010: 4fc2 9abf ab96 2fbf
-0.9559 -1.0793484 -0.5794994 -0.7549644 -1.2090548 -0.68589276

sequential/batch_normalization_1/FusedBatchNormV3;StatefulPartitionedCall/sequential/batch_normalization_1/FusedBatchNormV31 f4 [6]
00000000: 2f11 4b40 80db 8140 3b2f 9a40 cc96 4c40
00000010: 28cc 4840 35b0 af40
3.1729238 4.0580444 4.8182654 3.196704 3.1374607 5.4902596

sequential/batch_normalization_2/FusedBatchNormV3;StatefulPartitionedCall/sequential/batch_normalization_2/FusedBatchNormV3 f4 [6]
00000000: 719e ac3f e687 5940 3f40 0c40 70ca e13e
00000010: 98c9 693f 97ed aa3f
1.3485852 3.3989196 2.1914213 0.4409976 0.9132323 1.3353757

sequential/batch_normalization_2/FusedBatchNormV3;StatefulPartitionedCall/sequential/batch_normalization_2/FusedBatchNormV31 f4 [6]
00000000: ba52 34bf c323 13bf 00fb 3bbf dde7 13bf
00000010: e6e4 c7be 7c78 3ebf
-0.7043873 -0.57476443 -0.7342987 -0.5777567 -0.39041823 -0.74402595

sequential/batch_normalization/FusedBatchNormV3;StatefulPartitionedCall/sequential/batch_normalization/FusedBatchNormV3 f4 [6]
00000000: 1f83 fe41 3196 c040 d8d3 f841 743c ed40
00000010: 1a93 0741 b595 8d41
31.814024 6.018334 31.10344 7.4136295 8.473413 17.6981

sequential/batch_normalization/FusedBatchNormV3;StatefulPartitionedCall/sequential/batch_normalization/FusedBatchNormV31 f4 [6]
00000000: 4080 4d3d 203f 65c0 139e 933d c416 4ec0
00000010: c652 ecbf 8942 e6be
0.050171137 -3.5819778 0.07207885 -3.2201395 -1.846276 -0.44972637

sequential/dense/MatMul;StatefulPartitionedCall/sequential/dense/MatMul f4 [6, 24]
00000000: 2095 d53d 2708 373e 8649 633e c4f8 5bbd
00000010: ed12 a43d 5116 83bd 5a8d a63e 7a70 cd3e
00000020: 6829 373e efcb b6bc 0da2 63bc 78c8 2bbe
00000030: 019a 7b3e 97d2 aa3e 1254 493d d8ad ea3c
00000040: 716f 14be 48ac 5fbe 2c34 1f3e 6628 d93e
00000050: 8d2a bbbd cea8 bdbc 39a4 ba3d 5e57 fabb
00000060: d02c cdbd 02f8 45be 12ba 363e ec7e cd3d
00000070: 7d80 08be 287b 05bc 5d16 f43c da0f ab3d
00000080: a72b ac3c c27e b23d bd58 b3bd d929 81bd
00000090: 3586 b0bd 28da 9e3d c481 433e a9f0 1c3e
000000a0: 0df4 c4be a9f7 c83d 997e 8ebe 1cb5 223e
000000b0: 4579 a8bc b905 a83b 5ac6 9bbd e02a 7d3e
000000c0: 66ab c6bd 1ac4 36be 5fde ef3d de50 873e
000000d0: 6862 a83c ba48 623d f1af ce3c 8563 073e
000000e0: 13c0 72bd 8610 e23d 9c1f a83d 3ad4 9c3b
000000f0: 521b 08bc e6a6 4d3b 1d6e cd3d 98b3 cb3d
00000100: 746c e2bd 9141 543d e449 8fbe 5ae8 383e
00000110: 3981 a6bd a40e 0c3e b390 133e c3d0 4c3e
00000120: 1a26 72be 316e afbe 099d 9a3d 039b 9e3d
00000130: 5611 8b3d 69f3 96bd 0d4b 693c eb1e 53bc
00000140: c576 83bd 6bd5 7c3a 4056 da3d 79d5 50be
00000150: 009a 00be b809 36be 022f 0dbe dbf4 ea3d
00000160: 66d3 14be ae51 b3be 0dae a2be 6011 7a3c
00000170: c418 20be ef4e 14be 28db bd3d 8320 4ebe
00000180: f92d 57be e31f 86be 851c a23e 3169 c7bd
00000190: f305 57be 4431 1ebd 4e2c d23c 9178 17bd
000001a0: 5137 443e 5754 edbd 30c1 0dbe d642 ecbd
000001b0: a610 93bd 1835 7cbd e91b 8a3e 783b c73c
000001c0: ca7a e5be 0c72 ed3c 4336 95be cbab 723d
000001d0: c49d b13d 8117 63be 880d 8ebd 54d5 fb3d
000001e0: 3ae8 e43d 1b88 86be 0665 f9bd d66b 443e
000001f0: 388f 1fbe f79f 733c 7ceb 863e ea86 f1bc
00000200: 6f73 3fbe 4c07 383e 44aa 91bd cd40 cfbc
00000210: bbd1 593e f873 2d3d acf0 2ebe 50c8 383e
00000220: f36b aabe 4f3f 00be 5660 14be 3eb1 203e
00000230: 9f7d 51be 0040 63bd 2ef1 8e3d 865d 053d
0.10428834 0.17874204 0.22196016 -0.05370404 0.08011422 -0.06400741 0.32529718 0.40124875
0.17886889 -0.02231404 -0.013893616 -0.16775692 0.24570467 0.33363792 0.04915244 0.028647348
-0.14495637 -0.21843064 0.15547246 0.42413634 -0.09138975 -0.023151781 0.09113354 -0.0076398095
-0.10018313 -0.19332889 0.17844418 0.10033974 -0.13330264 -0.0081470385 0.02979582 0.08352633
0.021016909 0.087155834 -0.0875716 -0.0630681 -0.08619348 0.07756454 0.1909247 0.1532618
-0.38467446 0.098128624 -0.2783096 0.158894 -0.020565638 0.0051276353 -0.07606192 0.24723387
-0.097006604 -0.17848244 0.11712336 0.26428884 0.020554736 0.05524514 0.02523038 0.13221557
-0.059265207 0.11038308 0.08209154 0.0047860416 -0.008307295 0.0031379997 0.10030768 0.09946364
-0.11055842 0.05182034 -0.27986062 0.18057385 -0.08130116 0.1367746 0.14410667 0.20001511
-0.23647347 -0.34263757 0.07549483 0.0774441 0.06790416 -0.073706456 0.014239085 -0.012885789
-0.06419138 0.0009644839 0.10660982 -0.20393933 -0.12558746 -0.17777145 -0.13787463 0.11472484
-0.14533767 -0.35023254 -0.31773415 0.015262932 -0.15634447 -0.14483236 0.09270316 -0.2012959
-0.21013631 -0.26196203 0.31662384 -0.097368605 -0.20998363 -0.038621202 0.025655892 -0.036980215
0.19161727 -0.11588352 -0.13843226 -0.115361854 -0.0718091 -0.06157407 0.2697442 0.02432035
-0.44820243 0.028985046 -0.2914296 0.059245866 0.086726695 -0.22176935 -0.06936175 0.122965485
0.11177106 -0.26275715 -0.12177472 0.19181761 -0.15581977 0.014869682 0.26351535 -0.029483277
-0.18696378 0.17971534 -0.07112554 -0.025299454 0.21271412 0.042346925 -0.17083997 0.18045163
-0.33285484 -0.1252415 -0.14489874 0.15692613 -0.20458077 -0.055480957 0.06979595 0.032559894

sequential/separable_conv2d/separable_conv2d/depthwise;StatefulPartitionedCall/sequential/separable_conv2d/separable_conv2d/depthwise f4 [3]
00000000: 0000 0000 0000 0000 0000 0000
0.0 0.0 0.0

sequential/separable_conv2d/separable_conv2d/depthwise;StatefulPartitionedCall/sequential/separable_conv2d/separable_conv2d/depthwise1 f4 [1, 3, 3, 3]
00000000: aee3 92bb 3d72 26be 21f3 b8bd 565d 9bbe
00000010: c3fe 32be 7b64 d53e 5ca2 cc3e db8a c43e
00000020: ba50 76be 2ad2 d53e db29 d9be 9ced c13e
00000030: 4002 263e 9254 27be a391 a8be f49e 733d
00000040: 1c88 89b9 cad1 d43e 7591 8d3e 559f a8bd
00000050: 313d f33e 35af 0fbe 0f84 1a3d 63a4 833e
00000060: 5104 a93e 414e 683e 9c68 4dbe
-0.004482708 -0.16254516 -0.09030748 -0.30344647 -0.17479996 0.41678223 0.3996762 0.38387188
-0.24054232 0.41761905 -0.42414746 0.37876594 0.16211796 -0.16340855 -0.32923612 0.05947776
-0.00026232086 0.41566306 0.27650037 -0.08233515 0.47507623 -0.1403168 0.037723597 0.25711355
0.33011106 0.22686101 -0.20059437

sequential/separable_conv2d/separable_conv2d;StatefulPartitionedCall/sequential/separable_conv2d/separable_conv2d f4 [6, 1, 1, 3]
00000000: ca0f fabe b884 153f a2b0 afbe 474f 003f
00000010: 88ce 1a3e 7c84 9b3e 4ebf 3fbf 56c5 2d3f
00000020: c0bc 0ebf 2a4d aabe 5819 56bf b99c 0d3f
00000030: ebdb a1be 06a3 89bd c4cc 393f 3159 7f3e
00000040: ecb2 3d3f 6ddf 68be
-0.4884017 0.5840564 -0.34314448 0.5012097 0.15117848 0.30374515 -0.7490128 0.67879236
-0.5575676 -0.33261997 -0.8363242 0.55317265 -0.31613097 -0.067205474 0.7257807 0.24936368
0.7410114 -0.2274148

sequential/separable_conv2d_1/separable_conv2d/depthwise;StatefulPartitionedCall/sequential/separable_conv2d_1/separable_conv2d/depthwise f4 [1, 3, 3, 6]
00000000: 0392 99be b1c3 5cbe ce29 703d 2413 1c3e
00000010: d9c4 1a3d 57be 8e3e 64c0 7dbe 942e 1b3e
00000020: c9c9 9dbe 6e29 f8bd fdc4 7abd 47f8 c1bd
00000030: c5aa 82be cee0 3fbd 8b32 e63d 1bce a53d
00000040: bf8e 58bd f635 a53d 9692 873d cd0c 6fbe
00000050: 49a4 283e 956d e4bd 0d37 98be 43a6 bbbd
00000060: b64b f73b b604 26be bfe4 debd 734b 973e
00000070: eb27 ef3d ed1d 593e ae6d c5bb 825b 0a3e
00000080: 6df9 3bbe 81d6 1c3d 824e 18be fd68 80be
00000090: 051b 09be 981d 7d3e 2d0b c43d 1029 733e
000000a0: 2906 05be 8210 b33c 0263 0f3e 1ff9 79be
000000b0: f1a4 ea3d 87ab 58be 73f2 d43d cec2 a2bd
000000c0: 69a5 78bb e7b2 ab3d 4c75 87bd 0f35 d43d
000000d0: 85ff 3fbe 861a 16be
-0.2999421 -0.21559025 0.058633618 0.15241677 0.037785385 0.27879593 -0.24780422 0.15154487
-0.30818012 -0.12117277 -0.06122302 -0.09471183 -0.25520912 -0.04684525 0.11240109 0.08095952
-0.05287051 0.08066933 0.06619756 -0.23344727 0.1646892 -0.111537136 -0.297295 -0.09162571
0.0075468672 -0.16212735 -0.108834736 0.2954975 0.116775356 0.21202822 -0.0060250377 0.1351147
-0.18356867 0.038290504 -0.14873698 -0.250801 -0.13389213 0.2471832 0.09572444 0.23746133
-0.12990631 0.021858457 0.14002612 -0.24411438 0.11457241 -0.21159182 0.10397806 -0.07947312
-0.003794039 0.08383732 -0.066141695 0.103616826 -0.18749817 -0.14658555

sequential/separable_conv2d_1/separable_conv2d;StatefulPartitionedCall/sequential/separable_conv2d_1/separable_conv2d f4 [6, 1, 1, 6]
00000000: 0172 98be 9fdf 7cbe 4922 1bbf de0a b53d
00000010: 84c1 573f 2cc6 bebe 574e 56bf 9796 1e3f
00000020: 03ed 2c3e 7c6e ffbe fd9b ecbe 3da4 253e
00000030: bd8b 0bbe 5e89 2cbe ee1d f83d bfbd 8bbe
00000040: 8384 6cbb f538 103f b5f4 51bd 2a09 b63c
00000050: c486 7b3d f5e9 023f cd7b 753e c4c9 20bf
00000060: e4aa ebbe 97ec a7be 7d79 df3e cbe8 b4be
00000070: 73af 2cbf bcb5 d3be 6d06 0abf e365 563e
00000080: 8e1a ce3e 92bf 353b 27b7 15bf b4ec 7b3d
-0.29774478 -0.2469468 -0.6059919 0.088399634 0.84279656 -0.37260568 -0.8371329 0.6194853
0.16887288 -0.4988898 -0.4621276 0.16175933 -0.13627525 -0.16849276 0.12115084 -0.27293202
-0.0036089725 0.5633691 -0.05125876 0.022221167 0.06140782 0.5113824 0.23973008 -0.6280787
-0.46028817 -0.3279769 0.43647376 -0.35333857 -0.67455214 -0.4134959 -0.53916055 0.20937304
0.40254635 0.0027732593 -0.58482593 0.061505035

sequential/separable_conv2d_2/separable_conv2d/depthwise;StatefulPartitionedCall/sequential/separable_conv2d_2/separable_conv2d/depthwise f4 [1, 3, 3, 6]
00000000: c009 023e bdcd 033d 6274 19be 05ea 493e
00000010: 644f cd3d 728d 7f3e 4bfb 23bd d86c 4b3d
00000020: 9ffe d8bd 1e8a 1a3d 33f7 87bc 8f04 a3bd
00000030: 92a4 4b3d 8b9b 55be 5cd0 30be c8e3 aabd
00000040: cb2b 36be f283 753e d8a7 f0bc b1e3 673e
00000050: a3e4 84bc 5fdc 823e 4b08 0a3d 9e63 da3d
00000060: a2f8 c83d 81f8 a0be 2f1c 633d 2f12 ddbd
00000070: 2c49 d5bd 0b67 f83d e01b 973e 5f18 98be
00000080: bec2 1c3e 2a97 1b3e 2504 c1bc f0b5 20bc
00000090: a5c1 233e 2d70 a7bc f125 29be 70f4 4d3e
000000a0: f484 bf3d e239 b5bd 94e7 633e 5ca2 83be
000000b0: 74a4 1c3e 1453 883e c561 fe3d 8cae 323e
000000c0: 43e1 2a3e f300 d0be 8ec4 1d3e 45a9 153e
000000d0: bc2c f8bc 04bd 16bd
0.12699032 0.03217863 -0.14985803 0.19718178 0.10024908 0.24956301 -0.040034574 0.04966435
-0.1059544 0.037729375 -0.016597366 -0.07959854 0.049717493 -0.20860116 -0.17266983 -0.08344227
-0.17790143 0.23976114 -0.02937691 0.22645451 -0.016222304 0.25558755 0.033699315 0.10663532
0.09813048 -0.31439593 0.0554468 -0.10794484 -0.10414347 0.12129029 0.29513454 -0.29706094
0.15308663 0.15194383 -0.023561547 -0.009809002 0.15991838 -0.020439232 -0.1651838 0.20112777
0.09351531 -0.08848931 0.22256309 -0.25709808 0.15297109 0.26625884 0.12420992 0.17449397
0.16687493 -0.40625724 0.15407011 0.14615352 -0.030294769 -0.036801353

sequential/separable_conv2d_2/separable_conv2d;StatefulPartitionedCall/sequential/separable_conv2d_2/separable_conv2d f4 [6]
00000000: 0000 0000 0000 0000 0000 0000 0000 0000
00000010: 0000 0000 0000 0000
0.0 0.0 0.0 0.0 0.0 0.0

sequential/separable_conv2d_2/separable_conv2d;StatefulPartitionedCall/sequential/separable_conv2d_2/separable_conv2d1 f4 [6, 1, 1, 6]
00000000: 1857 1b3f 80a4 df3e 1272 493e 5944 00bf
00000010: 319f f03e e411 ebbe e820 9d3e 050e e93d
00000020: 6eda fbbe 8c40 f7be 90a1 9e3e de93 b03e
00000030: c7dd d9bc d1b9 0fbe b972 15be be8d 24bf
00000040: c4da 643e 0f9c ee3e 946a 303f 1237 0bbf
00000050: e515 163f c34e e4ba 0a0f 39be a47f e8bd
00000060: 679c 0a3f 54fa fd3d d3a7 2dbf e324 2b3f
00000070: 881f a9be f728 313f 3b4d dbbb f521 b6be
00000080: 3abe 123f 7bd9 dfbe dbfc c43e 9761 b63d
0.6067977 0.4368019 0.1967242 -0.5010429 0.46996453 -0.45912087 0.30689168 0.11379627
-0.49190086 -0.48291433 0.30982637 0.34487814 -0.02659501 -0.14035727 -0.14594544 -0.6427878
0.22349077 0.46603438 0.68912625 -0.54380906 0.5862716 -0.0017418492 -0.18072143 -0.113524705
0.541449 0.12401262 -0.67834204 0.6685316 -0.3303187 0.6920313 -0.006692556 -0.35572782
0.5732151 -0.43720612 0.38474163 0.089053325
